checkpoint.pth (torch_old, 175845 bytes, 8 tensors)

fc1.weight f4 [256, 37]
00000000: 361e 113e f669 813d 4bf5 0fbe aec1 08be
00000010: a4fb 86be 72a0 df3d 2e8c 27be 671a 213e
00000020: f891 2a3c d10b 38bf f0e9 4c3d 32a2 2e3d
00000030: 9eb1 323d c8bd 93bd 2590 1a3e 2c39 66bd
00000040: a574 db3d 2730 1dbd 370d 033e 57f5 2a3e
00000050: df3e 44be f7fc 64bd b099 103b f876 b73d
00000060: 445a d2bd f73e 543c 0847 db3d cd5a 193e
00000070: 7749 09be 13fc 813e 05bd cbbd 33a6 b73e
00000080: e0f1 f73d ade0 b8bd e560 55be b9e5 8d3c
00000090: d466 e33b fafa d9bc 032b 8e3d a6f3 1bbe
000000a0: 53e3 1e3e f4c2 abbe 5368 f33d c181 573d
000000b0: f410 43be 8c62 573d 7169 533c 17e7 943d
000000c0: db6c 26be 6c4b 853d 2748 8cbe e2f7 66be
000000d0: 2412 9e3d 7490 abbe cb25 6b3e ae8c 983e
000000e0: 28b9 0a3e 2245 c83a 3fa4 f03d bdab 10bd
000000f0: cf1f aebe faf2 683d 4e20 febb ced1 d33e
00000100: c676 c1be bfcc a7bd b479 a2bc 19c0 803d
00000110: 64e4 97be d661 22be e8e5 4e3e 7dad c93d
00000120: 2f28 92bc 81c3 60bd 49a5 e2bc 3c9b 9bbc
00000130: 11b1 003e 9c81 dc3d 0a6e 38be 0a2d 953e
00000140: 760e 8ebe 57da e1be c1d1 63be 86ac 83bf
00000150: 0c84 033e 7df6 fdbd 22ea dcbd f5e1 b9bc
00000160: ca3c 9ebe b53f ab3c 972e fb3c 8b9c b2bc
00000170: 000e a53c d3c7 6f3d a2f0 47bd 5170 713d
00000180: b84a 40bd 5c87 26be 7103 fbbd 873d aabd
00000190: 2120 b63d 06d9 973d a876 033e 53fc ce3e
000001a0: 6ba9 05be 254e 03be a4ad 333e 974c e03d
000001b0: b08a b23e 0b32 08bd f45b 363c b61f 113e
000001c0: 08c6 bc3d cf00 a93d 027c 59bd 9f70 543e
000001d0: d9a2 503e 39f2 ac3e 2fc5 80be 6695 8ebe
000001e0: 8524 d7be fce4 773d 601a 2c3e 78c1 0abe
000001f0: 639c 553e 83fe 06be 5faa 52be 2a61 f1ba
00000200: c67c 223e 9fd6 8c3e 4262 2bbd 0492 0c3e
00000210: f57c 4d3e c3c3 943d f2b0 ef3d cce5 493e
00000220: 45c2 083e 73d0 ea3d 60d6 12be ca87 c6bc
00000230: aaac 87be b9f3 cd3d 92dd 98bc 05b4 18bd
00000240: 2914 3e3d fcc0 37bd c2b8 293d 78da 673b
00000250: 3895 a73d 3cf1 2e3e 9f7b 5dbd ba62 c03d
00000260: 99c0 2bbd 33f1 ec3d 1ed7 79be 6e97 18be
00000270: 2c5a f0bd 8416 94bc 4e2e a53e d78e 87be
00000280: 2342 01bf 8ca3 753d 33d0 04bf ac67 213e
00000290: dd1a a6bd f020 3dbd dd1f 86bd c777 9c3d
000002a0: 9eed 53be 476d 63be fdb1 423e 29e6 643d
000002b0: 0695 d93d 8633 a13d 54d3 433e 26bc 743e
000002c0: b4ac 37be 6b77 123e 6c57 41be 391c 933e
000002d0: 6fec 17be 6fda 133d c3c9 60be 8910 14bd
000002e0: 4216 d1bb 4677 063e 5172 3a3d e6eb 8fbe
000002f0: e68f 4ebe d324 c0be 32bf aabd e83f 3abb
00000300: 679d 12be 428c 893c d14f 233e 726e cfbd
00000310: 0412 c7bc 094d 8b3d f6ce 033e 9b01 94bd
00000320: ebf6 52bd 6d08 63be 6edc 273e 2723 a6bd
00000330: d5bc c7bc 9a86 953c d07a 5cbd dc12 81be
00000340: 07db ef3d 22b3 013e 60ef 55bc 297f f73c
00000350: 9c6c 04be fe23 173d d3a4 a53d 1eb5 bbbd
00000360: fc0b 883e 9464 35be 8b3a c43d f7b5 423e
00000370: 19e2 9abe 1331 163d e8c4 1dbe c624 f5bd
00000380: 17ad 343c fd0a 193c bea8 783d 55d9 273e
00000390: b465 8bbd 0312 ae3d 5a24 61bd 5ec2 3fbf
000003a0: fe0f e43c c973 aa3d 5082 ab3d dff8 92be
000003b0: 9c6d 95be ef27 1f3e fc89 f23d 3e1a e6bd
000003c0: fbcb 70be e7b9 babd 6bc1 adbd 205b a83d
000003d0: 8182 b93d e387 8dbd 7188 3abe a56c 8cbd
000003e0: 8444 48bd e8f7 ce3d 99b7 40bd c8cf 20bf
000003f0: 5007 20be 3601 e53d ef99 123e b1da 3c3d
0.14171681 0.063190386 -0.14058416 -0.13355133 -0.26363862 0.109192744 -0.16362068 0.15732728
0.010410778 -0.7189303 0.050027788 0.04263515 0.04362642 -0.07213932 0.1509405 -0.056206867
0.107156076 -0.038376 0.1279801 0.16695152 -0.19164608 -0.05590531 0.002206426 0.08958238
-0.10271123 0.012954465 0.107069075 0.14976044 -0.13406931 0.2538763 -0.09948162 0.35868987
0.12106681 -0.090272285 -0.20837744 0.017321454 0.0069397483 -0.026608933 0.069417976 -0.15229663
0.15516405 -0.33547175 0.11885133 0.052613977 -0.19049436 0.052584216 0.012903557 0.072706394
-0.16252463 0.06508526 -0.27398798 -0.22555497 0.07718304 -0.33508646 0.22963636 0.2979483
0.13547194 0.0015279392 0.117500775 -0.035320032 -0.34008643 0.056872346 -0.007755316 0.41371006
-0.3778593 -0.08193349 -0.019833423 0.0628664 -0.29666436 -0.15857634 0.2020489 0.098475434
-0.017841427 -0.054873947 -0.027666705 -0.01899492 0.12567545 0.107669085 -0.18010727 0.29135925
-0.27745408 -0.44111893 -0.22247984 -1.0287025 0.1284334 -0.124005295 -0.10786845 -0.022690753
-0.30905753 0.020904401 0.030661864 -0.021803161 0.020148277 0.058540177 -0.04881347 0.058945004
-0.046946257 -0.16262573 -0.12256516 -0.08312517 0.08892847 0.07414441 0.12838233 0.40426883
-0.13052909 -0.12822779 0.17546707 0.10952108 0.34871435 -0.03325085 0.011130322 0.14172253
0.09217459 0.08252107 -0.05309678 0.20746087 0.20374621 0.3377855 -0.2515044 -0.27848357
-0.4202005 0.06052111 0.16806936 -0.13550365 0.20860438 -0.13183026 -0.20572804 -0.0018415798
0.1586791 0.27507493 -0.041841753 0.13727576 0.20067199 0.07263901 0.117036715 0.19716567
0.13355358 0.1146554 -0.1433959 -0.024234671 -0.2649892 0.10056252 -0.01866034 -0.037281055
0.046405945 -0.04486178 0.041435964 0.003537802 0.08182758 0.17084211 -0.054072972 0.093938306
-0.041931722 0.115694426 -0.24398467 -0.14901516 -0.11735949 -0.018077143 0.3226189 -0.26476166
-0.5049154 0.059970424 -0.51880187 0.15762204 -0.081105925 -0.04617399 -0.06549046 0.07640033
-0.20696113 -0.22209655 0.1901321 0.05588356 0.10624127 0.078711554 0.19123584 0.23899898
-0.17936975 0.14303367 -0.18881005 0.2873247 -0.14836286 0.036096986 -0.21951966 -0.03614858
-0.006380827 0.13131437 0.045519177 -0.28109664 -0.2017208 -0.37528095 -0.08337249 -0.0028419439
-0.14317857 0.016790513 0.15948416 -0.10128488 -0.024300583 0.06801803 0.12871918 -0.07226869
-0.05150501 -0.22171183 0.16392681 -0.081121735 -0.024382034 0.01825266 -0.05382806 -0.252097
0.11711698 0.1266599 -0.01305756 0.030212002 -0.12932056 0.03689956 0.08088078 -0.09165405
0.26571643 -0.17714149 0.09581479 0.19014727 -0.30250624 0.036667895 -0.15407145 -0.119699046
0.011027596 0.009340999 0.0607078 0.163915 -0.06806508 0.08499529 -0.05496631 -0.74905956
0.027839657 0.083228655 0.083744645 -0.287055 -0.29185188 0.15542577 0.11842725 -0.11235474
-0.23515312 -0.09117489 -0.08484157 0.08220506 0.09058095 -0.06910684 -0.18216111 -0.0685666
-0.048893467 0.10105878 -0.047050092 -0.6281705 -0.1562779 0.111818716 0.14316534 0.046106998

fc1.bias f4 [256]
00000000: cfdd 5b3d 4b89 f5bd 97ca 083e 4f01 f33d
00000010: a7c8 d4bd e485 0fbe 86b2 f63d 8362 09be
00000020: c119 c23d 1c5f 3dbd 2e41 14bd 0b28 14be
00000030: f57a 1abe c8fd 82bc 57d9 8c3b 2b46 4dbb
00000040: 591d ffbd 17bc 70bc 1430 463d 313f 0cbd
00000050: 7470 dd3c b326 d7bd 769e 28bd 9287 973b
00000060: 9b59 fd3c 947a acbd fd9f af3c 2f80 d2bd
00000070: 9da0 933b a7d2 23bd 2045 40be f7ab dd3d
00000080: 82b0 efbc 68ac 29be 0100 91bb e52b d0bd
00000090: fda9 98bb e295 20be 009c 5fbe 259f 0c3e
000000a0: a6a5 583d 0e71 48be 9085 033d ed0c a3bd
000000b0: c81c 7539 c53e 1f3e c801 103d 06c3 76bb
000000c0: 8c70 27be dd1c 003c 82b2 c73d d779 de3c
000000d0: cbee 413d eaab cbbc adf8 933d 4751 343d
000000e0: b84d edbd 1ee6 1b3d ff38 b6bd 1655 983d
000000f0: f3e2 19be 5f01 563d 7df2 d8bd a4ad 3b3e
00000100: 6e17 733d 4025 82bc 868c 33be 1e0c 90bc
00000110: 43aa 333e 65e9 20bd be9d 1b3d 5170 cabc
00000120: 07af 7a3c 5490 833d 205c 253d 4fd5 fdbb
00000130: 74ce d9bd 6e2f 1cbd a514 e83c 456b 5f3e
00000140: ecb2 43bd a69a 9a3d 093d c23d 2cd8 2bbe
00000150: f580 56be 0d81 88bc d7f6 dfbd 6b68 aa3c
00000160: cdad 823d a202 533d f069 27be fdc8 3bbd
00000170: 4810 e93d ee7a 9e3c 1dc9 c13d 858c c63c
00000180: e160 da3c e0cc 04be 0e52 a63d cb93 d13d
00000190: df6e 803d 5cc4 dc3c 6c6f 72be 85f3 6b3d
000001a0: 48a5 06be 297c 093d 8e7a 80bb 2465 723d
000001b0: f662 033e fbab 14be caac 22be 25dd 2ebe
000001c0: 42a3 e83d cdb9 4d3c d698 e4bd 3996 13bd
000001d0: 8d3a 433d 4fb7 0d3e fbbe d2bc ac79 743d
000001e0: 553e 443d ad0b 28be 823c 8c3d 21b5 673d
000001f0: c53d 913c c7b6 1bbe b4f6 00be 28b8 9cbd
00000200: f89e 36be 903b 4bbe f6b9 853c f6a7 15bd
00000210: 43fe 93bd ce61 02be dcab c3bc 86c5 073c
00000220: 6805 313d 9d17 e6bd bf33 e33b 0b43 0c3d
00000230: 1784 a8b9 252c a33d 36fa e13d 691f 17bd
00000240: 3cd0 eb3c d771 20bd 6d1b a13d 6906 2bbe
00000250: 5498 163d 0f14 bcbc 1bc2 1b3a 69a8 9dbc
00000260: ed89 8c3d bc24 0d3d 012c 1bbe be74 39bb
00000270: 2837 09be 313f 18be 591e 143c 0b16 773d
00000280: 4f3b 89bd 24b0 2b3e d702 07be 6f6c a73d
00000290: 88cb 17be dee4 1fbd de0f e7bd bddd 8bbd
000002a0: 26aa 1cbe 1161 1f3d 1986 3bbe e951 0cbd
000002b0: 0d4a 853b 77ae d93d c4dc 8bbd 7e63 3ebe
000002c0: b059 4c3d 2499 07bd f534 263d 0238 e5bd
000002d0: 7de7 1fbd 80ed 2b3d b404 8dbd 3745 fcbd
000002e0: a726 8abd 31d8 5cbc 33ff 8abc 4af6 febd
000002f0: 352c fabd c92b 10be 26c8 22be 25b6 edbd
00000300: 52b7 2bbe c651 7dbe 6651 1e3c 5f57 e4bd
00000310: 1e68 ffbd 89f2 5dbd 7408 083d 9e00 013e
00000320: 5d2e 2e3c 30af 503e 2b93 db3b 632b 133e
00000330: db98 503d 04e4 683d 5381 f03d c14d 81bd
00000340: a254 8bbd 6c71 2f3d 95c8 cd3d 1433 a2bc
00000350: fdd3 a7bd 2cf3 68bd d980 fcbd a180 09bd
00000360: a7c6 5dbe 8ae7 93bd 8eaf 95bc f7ac f33d
00000370: d9f6 38bc 68c6 4d3c ca1a 6abd f101 debd
00000380: 8553 133e a5e4 0abd f8ea 08be f10f cbbc
00000390: 176c 20bd b979 44bd 45bf 973d 8013 b8bc
000003a0: a5e7 f03d 899a 15be a151 27be 7cfb 55be
000003b0: 4370 5abd 85cc 9ebd f41e 0a3e aafc b53d
000003c0: 80d8 c539 f603 bc3a 7cad 1d3d d5f4 0cbc
000003d0: 2c16 83bd fc26 19be 8e7c 0d3e 2ee4 533d
000003e0: d2b7 febd fac7 59bc 2a75 6fbd f6e3 853d
000003f0: 28ee 243d bad0 30be 1f84 34bb 16b1 853d
0.05367833 -0.11989077 0.13358532 0.11865484 -0.10389834 -0.14015919 0.120457694 -0.13416485
0.094775684 -0.04623328 -0.036194973 -0.144684 -0.15085967 -0.015990153 0.00429837 -0.003132234
-0.124567695 -0.014693282 0.048385695 -0.03423995 0.02703116 -0.10505428 -0.041166745 0.0046243155
0.030926516 -0.084218174 0.021438593 -0.10278355 0.0045052306 -0.039995816 -0.18776369 0.10823815
-0.02925897 -0.16569674 -0.0044250493 -0.10164622 -0.004658936 -0.15682176 -0.21836853 0.13732584
0.05289235 -0.19574377 0.032109797 -0.0796145 0.00023375743 0.15551288 0.03515795 -0.0037652864
-0.16351527 0.007819382 0.097508445 0.027157707 0.04734687 -0.024862248 0.072251655 0.044022825
-0.11587089 0.038061254 -0.0889759 0.07438104 -0.1502798 0.0522474 -0.10593126 0.18327957
0.059348516 -0.015886903 -0.17534074 -0.017583903 0.17545418 -0.039285082 0.03799223 -0.02471176
0.015300519 0.06424013 0.04037106 -0.0077463756 -0.10635081 -0.03813117 0.028330157 0.21818264
-0.047778055 0.07549028 0.09484298 -0.16781682 -0.2094763 -0.016663099 -0.10935753 0.020801743
0.06380806 0.051516183 -0.16349006 -0.045845974 0.113800585 0.019345727 0.094621874 0.024236927
0.026657524 -0.12968779 0.081211194 0.102332674 0.06271147 0.0269491 -0.23675317 0.057605285
-0.13148987 0.033565674 -0.0039208597 0.059178486 0.1283072 -0.1451873 -0.15886226 -0.17076547
0.11359264 0.012556505 -0.11161964 -0.036031935 0.04766326 0.13839458 -0.025725832 0.059686348
0.047911007 -0.16410704 0.068474784 0.056569222 0.01772965 -0.15206443 -0.1259411 -0.076523125
-0.1783408 -0.1984694 0.016324025 -0.036537133 -0.07226231 -0.12732622 -0.02388566 0.008286839
0.043218046 -0.112349726 0.006933659 0.034243625 -0.00032141872 0.07967404 0.11034052 -0.03689519
0.028785817 -0.039171066 0.07866559 -0.16701664 0.036766365 -0.022958783 0.0005941705 -0.019245343
0.06862245 0.03445886 -0.15153505 -0.0028298344 -0.13399947 -0.14867856 0.009040439 0.060323756
-0.06700765 0.16766411 -0.13184677 0.08174979 -0.14823735 -0.039036624 -0.11282323 -0.068294026
-0.15299281 0.03891093 -0.18312873 -0.034257803 0.0040676654 0.1062898 -0.06829217 -0.18592641
0.04989022 -0.03310503 0.040577848 -0.11192323 -0.039039124 0.041974545 -0.06885663 -0.12317889
-0.067456536 -0.013479278 -0.016967392 -0.1244932 -0.12215463 -0.14079203 -0.15896663 -0.11607007
-0.1676915 -0.24738225 0.009662962 -0.11149477 -0.12471031 -0.054186378 0.033211187 0.12597892
0.010631171 0.20379329 0.0067008934 0.1437202 0.050927024 0.056858078 0.11743417 -0.063136585
-0.06803252 0.042832777 0.100480236 -0.019799747 -0.081947304 -0.05687253 -0.12329263 -0.033569936
-0.21657811 -0.07221897 -0.018272188 0.11898225 -0.011289322 0.012559511 -0.057154454 -0.10840214
0.14387329 -0.03390946 -0.13370883 -0.024787875 -0.039165583 -0.047967646 0.07409529 -0.022470236
0.11762933 -0.14609732 -0.16339733 -0.20896715 -0.053329717 -0.07753853 0.1348837 0.088860825
0.00037736073 0.0014344442 0.038495526 -0.008603294 -0.06400713 -0.14956278 0.13817045 0.05173128
-0.12437405 -0.013292307 -0.058461346 0.06537621 0.040266186 -0.17267123 -0.002754457 0.06527917

fc2.weight f4 [128, 256]
00000000: 50b1 9e3d e225 8ebe 2e9b 753c b949 79bd
00000010: 53ba 51bc 5a07 aabd b28a fe3d f778 56bd
00000020: 3d7c c3bd 2ee1 bf3d 497b 81be f0b5 3c3d
00000030: f156 88bd 7fbb 88be 36ae 0cbe 7661 2fbe
00000040: 176d f6bd dbed 28be e54a 79be 204b 12be
00000050: 78f3 35be 2784 b93d 5b71 1fbd 1467 d23d
00000060: 20de 87bd d53d b6bd f235 04bd d9a8 0fbe
00000070: 71ed 83bd 412d 39be 74cc b9ba 30e1 9d3d
00000080: ca00 003e db99 01be 0b91 bf3d dbd1 b8bd
00000090: edd2 fcbd 0ae9 2b3d e127 dcbc 231b 9ebe
000000a0: 0954 dcbc df0f 12be d3dd 1ebe 5b19 b0b9
000000b0: 9ac4 2bbe 4a91 3b3a 810c 1cbe 64a9 16be
000000c0: 632c 933d 0c02 65bd e793 703e 48d3 c1bd
000000d0: 4946 07ba 9c78 923d 230d 6d3a 395d 04be
000000e0: 3bf7 c7bc 8fcb c4bc 763a 46be 1a9c 84bd
000000f0: 7fed c1bd 279c 02be f09c 28be 9e17 47bd
00000100: a457 26be 638d 653e 0719 b0bd 43ff b83d
00000110: 49d2 18be bb75 b6be c9ed fc3c 9fe0 44bb
00000120: f92d 36be 0575 c4be f40d 143d 0bea 21be
00000130: 1180 3cbe f58d a0bd 614e 163c 2778 cd3d
00000140: dd81 84be 1f58 8fbe 2734 bdbd 5200 c33d
00000150: 0b12 2cbe f201 d2be 566e 3cbe 68b3 a1be
00000160: 62a7 45bd e5a0 2abc 1b53 abbe e3e4 2fbe
00000170: 5a57 4cbe ef2a 81be b682 ad3c 538f 34bd
00000180: 067d 4abd 5f2e 61bd 3381 8fbd 3863 85be
00000190: 6178 c7bc 482b 5cbd ce60 ef3d a6d9 adbe
000001a0: d5cf 44bd 7e2a b8bc 59a9 94bb cb14 1b3e
000001b0: cbf4 d23d 0286 1cbd c9bc cf3c 8ce8 f13d
000001c0: b2db b6bd 6dce 88be 6e3b 1c3e 732c 2a3c
000001d0: 6da9 683e 9eb3 d23d 0af0 d1bc 5793 3abc
000001e0: c766 a33c 7aa5 1bbe d087 67bd 5b7b a83b
000001f0: 9776 41be 46cd 5dbe f043 52bd 755b b8be
00000200: 6a8b 08bd 50f5 f2ba f6f5 5fbe f6f3 403c
00000210: c2d6 b0bd bb16 a9bd 4837 06bb 0aa3 1cbd
00000220: e760 7bbe 3556 933d 1894 0ebd d8ec 5dbe
00000230: d05e 913c 6da0 af3d 2d4b 45bd 6bbf 87be
00000240: e01e be3d 8657 82be fef6 f03d 4463 283d
00000250: 0fe5 9cbd 7a23 8ebe 5087 26be c557 3b3d
00000260: a6dc 8ebe 635c 3bbd 6adb 4c3d aeaf 633d
00000270: c9c6 0bbd d494 a8bd 7053 41bb 660c b8bd
00000280: a29b d93c d34e 1fbe 94ed 57bb 5ef3 2cbe
00000290: 1af2 513d fc52 68bd b88d 9c3d a646 95bd
000002a0: c5d8 8dbe 3700 5d3d 0f75 0ebd 802c a83d
000002b0: 851c a03c 0398 c3bd d25a 3f3e 52c3 6cbd
000002c0: ac04 183d 73ec 04be 3984 4c3d c8b7 183e
000002d0: cb83 b5bb 78c2 023d 9307 b3bd ed8a a3bd
000002e0: b7a8 9e3d 2807 00be f9d5 50bd b1a1 903c
000002f0: 6141 85be 1e4c d83d 75e2 73be ffa4 03be
00000300: 7dfa a5bd 7f7d 0abe f2dc eebc 3727 88bd
00000310: 49fa 23be 75b9 503d 16c9 043e a3fa aebd
00000320: ff3b 71be 4125 553b 5f39 d53d f6d5 b93c
00000330: 8b7b 63bd fd15 3f3e c951 ad3d a3ef 4bbe
00000340: 2336 bd3b c459 163e bf53 c3bd 87b3 443e
00000350: 2105 90be b842 8b3d 5a34 21bd ede2 7bbe
00000360: 743c a1bd e759 63be 673b 813c 239b 413d
00000370: bdee 2b3e 85b9 e1bd 0351 0cbe 1e01 383e
00000380: c293 27be 413d f1bc fc36 1f3e 9342 29bc
00000390: d526 423d f26b b8bd 4559 42be 3f21 a8bc
000003a0: 9da2 0c3b 96c4 313d 82b8 4f3b 288e 32be
000003b0: be01 233b dfde 673c a365 de3b 0729 44bd
000003c0: f8db a8be 66a2 753c 2907 62bd f22f d8bd
000003d0: 39b1 abbd 756a 093c f501 46bb 1dfd d9bd
000003e0: 746b 983d 06e7 8b3d 13c3 90bd 3cf5 8abd
000003f0: 9b47 19be 6714 9c3d 3a4e 90bd fe78 193d
0.077486634 -0.27763277 0.014990611 -0.060861323 -0.012800771 -0.083021834 0.12428798 -0.052361455
-0.09545181 0.093691215 -0.25289372 0.046071947 -0.06657208 -0.26705548 -0.13738331 -0.17127022
-0.12032526 -0.16496985 -0.24344976 -0.1428647 -0.17768657 0.09058409 -0.038926464 0.10273567
-0.06634164 -0.08898512 -0.03227801 -0.14029254 -0.06441773 -0.18083669 -0.0014175312 0.07708967
0.12500301 -0.12656347 0.093538366 -0.09024402 -0.123449184 0.04197029 -0.026874484 -0.3088008
-0.02689554 -0.14263867 -0.15514307 -0.00033588227 -0.16774216 0.00071551336 -0.15239145 -0.14713055
0.071862005 -0.055910155 0.2349392 -0.09464127 -0.00051603146 0.07151911 0.000904279 -0.12926187
-0.02440988 -0.024022846 -0.19358239 -0.064750865 -0.09469127 -0.1275488 -0.16466117 -0.048606507
-0.1624437 0.22417216 -0.085985236 0.09033062 -0.14923967 -0.35636696 0.030875104 -0.0030041111
-0.17790975 -0.3837053 0.03614612 -0.15811937 -0.18408228 -0.07839576 0.00917396 0.10032683
-0.25880328 -0.2799692 -0.09238463 0.095215455 -0.16803758 -0.4101711 -0.18401465 -0.3158219
-0.04825533 -0.010414337 -0.33461842 -0.17177157 -0.19955197 -0.25228068 0.021180492 -0.044081997
-0.049435638 -0.054975864 -0.07007065 -0.2605226 -0.024349393 -0.053752214 0.11688386 -0.33955115
-0.048049767 -0.0224812 -0.0045367894 0.1514465 0.10300597 -0.038213737 0.025358574 0.11811933
-0.08928622 -0.2671999 0.15257046 0.010386574 0.22720881 0.102881655 -0.025627155 -0.011387668
0.019946469 -0.15199843 -0.056526005 0.0051416582 -0.18892895 -0.21660337 -0.05133432 -0.36007276
-0.03333608 -0.0018536244 -0.2187117 0.011776915 -0.08634712 -0.082562886 -0.0020479728 -0.038241424
-0.24548684 0.07194177 -0.034809202 -0.2167238 0.017745405 0.08575521 -0.048167396 -0.26513228
0.09283233 -0.254574 0.1176586 0.041110292 -0.07660877 -0.2776144 -0.16262555 0.045738
-0.27902716 -0.045742404 0.050013937 0.055587463 -0.034125123 -0.08231512 -0.0029499196 -0.0898674
0.02656347 -0.15557413 -0.0032948004 -0.16889712 0.051256277 -0.056719765 0.07644218 -0.07288866
-0.27704445 0.053955283 -0.034779605 0.08211613 0.01954485 -0.09550478 0.18686989 -0.05780346
0.03711383 -0.12980823 0.049930785 0.14913857 -0.0055393926 0.03192374 -0.08741679 -0.07985482
0.077470236 -0.1250273 -0.05098531 0.017655225 -0.26026443 0.10561393 -0.23816855 -0.1285591
-0.081044175 -0.13524435 -0.02915809 -0.06648105 -0.16013445 0.050958116 0.12967333 -0.08543899
-0.23558043 0.0032523426 0.10411333 0.022685032 -0.05553774 0.18660732 0.08462865 -0.19915633
0.005774276 0.1468268 -0.09537458 0.19209109 -0.28128913 0.06799835 -0.039356567 -0.24598284
-0.07872859 -0.22202264 0.015775396 0.04726709 0.1679029 -0.11021713 -0.13702779 0.17969176
-0.16364959 -0.029448153 0.15548319 -0.010330814 0.047400314 -0.09004964 -0.18979366 -0.020523665
0.002145923 0.04340037 0.0031695669 -0.17437041 0.0024872865 0.014152258 0.0067870184 -0.04789069
-0.32980323 0.014992332 -0.05518261 -0.1055602 -0.08383412 0.008387198 -0.0030213569 -0.10643981
0.0744237 0.068311736 -0.070684575 -0.06785056 -0.14968722 0.07621079 -0.070461705 0.037468903

fc2.bias f4 [128]
00000000: b9c9 7e3b 0a84 99bd 85de d73c f358 423d
00000010: 9e50 debd 0d8a 8fbd 71ac 893d d628 aebd
00000020: 421a 9d3b 230d 03be c043 a4bc 5042 e5bd
00000030: ae81 873d a023 4fbd 232c bbbc 8012 aabd
00000040: fa0b e8bd b5ec 69bd f598 afbd 6530 fbbb
00000050: 304a d5bb d239 1dbe e8af 903d 90f3 26bc
00000060: 0fef aabc 933e 603d e948 4ebd 1bad eebd
00000070: 38a0 d1bd cf78 903c 8dcd babb f70c 78bc
00000080: 376d af3e 4d2c c23b 7099 91bd 69ff 4c3c
00000090: 01b1 82bd c50c 9fbc 0bb8 9ebb 2678 24bd
000000a0: 12ff bcbb ce16 89bb f22d 90bc 74af 05be
000000b0: d6f7 363d 12b0 f1bc 7fec 12bd cbcd 4ebd
000000c0: e085 f2bd 24e2 a4bc fd3a 61bd c033 babc
000000d0: 010e 12ba 6b09 af3c 9904 bc3c 994c 50bd
000000e0: 24b5 9bbd cbf9 f3bc c3b9 49bd 67b6 efbd
000000f0: 64e7 333d ac30 0cbc c204 8bbd d147 dabd
00000100: 30c3 333e f001 7f3d 8bc8 e6bd d692 81bc
00000110: d7ec b33c e025 103d d4fa 8cbd f498 33bd
00000120: 8a51 50bd a9e7 28bc 4557 9c3d 50a8 6fbd
00000130: cb14 513d 17c8 cf3c b946 083e c755 a83d
00000140: 616f 9e3c 8a80 8d3c 36c9 f03b f551 9b3d
00000150: 9abd 383d a6d2 33bd 26e2 87bd 26f9 aeba
00000160: d3e7 fc3b 1aa5 19be 1599 13bc 2db9 753c
00000170: 6f3c 66bd 612c 60bc a2e2 7a3d 3eba d4bd
00000180: e1c7 7ebd 9f15 963c 6d70 f93a f8ae 233c
00000190: 2d41 c3bc 7181 cd3b 0ac0 dbbd 37ff b0bc
000001a0: 0a0e b5bc 1261 73bd 9485 95bd ac77 58bd
000001b0: f399 f0bb d567 68bc 8183 d3bd 0aca b43c
000001c0: ae91 883d afbf 6abd 6e5a 01be 2664 9fbc
000001d0: 3fe2 67bd 1d16 e5bd 7030 d5bd fea6 6c3e
000001e0: 273d 42bd 29ef f6bc dbc8 783e 569a e63c
000001f0: c9cf 6abd b215 3dbd 44d8 2a3d 1e4d 68bd
0.003887756 -0.074958876 0.026351223 0.04744811 -0.1085522 -0.07008753 0.06722344 -0.085038826
0.00479439 -0.1279798 -0.020051837 -0.11194289 0.06616531 -0.050571084 -0.022848194 -0.0830431
-0.11330409 -0.057110507 -0.08574096 -0.007665681 -0.006509088 -0.15354088 0.070648015 -0.010189906
-0.020865945 0.054747175 -0.0503625 -0.11654111 -0.102356374 0.017635731 -0.005700773 -0.01513981
0.34263012 0.005925691 -0.07109344 0.012512066 -0.06381417 -0.019415269 -0.004843717 -0.040153645
-0.0057677114 -0.0041836267 -0.017600033 -0.13055211 0.04466995 -0.029502902 -0.03587007 -0.05048923
-0.11841941 -0.020127364 -0.054987896 -0.022729754 -0.0005571545 0.021366796 0.022951411 -0.0508543
-0.07602909 -0.029782197 -0.04924942 -0.11704712 0.043921843 -0.008556526 -0.06788017 -0.10658229
0.17554927 0.062257707 -0.11268719 -0.015817087 0.02196352 0.03519237 -0.06883779 -0.04384704
-0.05085901 -0.010309138 0.07633833 -0.058510125 0.05104522 0.025363965 0.13308229 0.08219486
0.019340219 0.017273206 0.007348205 0.075839914 0.045102693 -0.043902062 -0.06634931 -0.0013349399
0.0077180653 -0.15004387 -0.009008666 0.014997763 -0.056209978 -0.013682456 0.06125129 -0.103870854
-0.062202338 0.018320857 0.0019030698 0.009990446 -0.02383479 0.006271534 -0.10729988 -0.02160607
-0.02210142 -0.059418745 -0.07300869 -0.052848503 -0.007342571 -0.014184912 -0.10327817 0.022068996
0.06668411 -0.05731171 -0.12632152 -0.019456934 -0.05661225 -0.111858584 -0.10409629 0.23110577
-0.0474216 -0.030143337 0.2429537 0.028149765 -0.057327066 -0.04616327 0.041710153 -0.05671417

value.weight f4 [4, 128]
00000000: 6155 8d3d 9033 963d 9ce5 0dbe a530 1d3d
00000010: e76a adbc c7e4 273c c25f 1ebd 49fe 2e3e
00000020: 5492 3d3e bdf5 e13d db47 28bc 8938 63bc
00000030: 3926 b43e 4a0c 443e d4ea 3ebd 4801 2a3e
00000040: 89d9 31bd f664 34bd 2973 bdbe e5b0 983e
00000050: b02f 663e 1a99 cebd 575c df3d e237 563e
00000060: c90f a9be 6e4f 093d e4c0 463e edbe 96bd
00000070: 1c3b 45bd 5e01 743d 2860 0abb b154 233e
00000080: bf90 1d3e f403 c83d cc0b c7bd 1bbc de3c
00000090: 6f18 5fbd 5edb 40bc 3ac8 173e c3d7 59bd
000000a0: d7da 7cbd 181e 1d3e 3b52 e23c acb6 4bbd
000000b0: 8ade 3ebd f6ae 8c3d 50ea 96be 4859 0c3d
000000c0: 40f5 463d b973 c03d fb7f e63d 1644 1dbe
000000d0: 324e cebb 6a16 4ebd 64ef a03c 92fc e4bb
000000e0: b839 4fbe 9081 333d 32f5 ccba 59b2 253c
000000f0: e4aa c9bd fd82 dfbd 3841 9dbc 244a 5eba
00000100: 5e53 4f3e f9f4 513e 3548 8cbe 0556 5abd
00000110: cce0 7fba d81c 053d bd91 c1bd 1039 99be
00000120: c5ba fcbc 5627 cdbc c69c 603d ed22 68bd
00000130: f282 36be b57c 3a3d be28 103e 63dd 8f3d
00000140: ea01 e0bd 88af f9bd 957b c5bd 315e eb3d
00000150: 4ffb 683e a51c 813d 5473 71bd fb98 8e3b
00000160: fc8e 95bd cfc0 623c d559 9a3e 4633 573e
00000170: c5e9 e8bc 036d 3f3c f8bc 973d b6f5 1d3e
00000180: c281 4dbd 0710 773d d8df 71be 1d44 323d
00000190: 4bb0 953c 25c0 a73d 3095 c1ba b0e6 90bd
000001a0: c12e 873d ee6d 47be 633c 75bd 2eff 603c
000001b0: 8d95 533c 592b 9e3e a03b 0d3d dba9 6e3e
000001c0: b206 823e 7310 e33c efd9 f3bc 7bf9 b3bd
000001d0: f84a 993d b412 cd3d 7105 723a 9256 233e
000001e0: 3080 4a3d c2b9 55bd dab4 a63d ef92 503e
000001f0: ff5f ccbc 8340 86be 1faa 193c cc83 adb9
00000200: dcc0 79bd 8026 183e d401 063e 5a8e 993c
00000210: 13ea f33d 6c20 cebc e33e 9e3e 341d 163e
00000220: 42e8 96be 6a13 c33d 1302 963c 99dd 843d
00000230: 7f59 1ebe b6e0 8c3d d041 2a3d bae2 b43e
00000240: 2e21 3abd 59e5 cfbc caf2 bb3d 8cf1 833d
00000250: 8335 393e 4d85 e8bc f187 113e d832 1d3e
00000260: 9275 58be 5ce8 a8bc e302 bb3e f367 3cbc
00000270: d012 663c abd3 19bd 8e53 923c 3b40 413e
00000280: f8e4 4a3e 6832 6dbd a5f9 3b3e a43a 98bc
00000290: 0eca a83d f7e7 b13d d700 323e b9f2 923d
000002a0: 287c 983d b829 583e 7f05 173c 60a4 733d
000002b0: 4c2d bb3c f261 89bd 0209 a7be 0693 a7bd
000002c0: 6851 633e 5929 5f3e e988 813e 38b2 923c
000002d0: db25 523d 0251 a5be c49b 183e 3bf1 863d
000002e0: 56db ecbd 0393 0abe 8dd6 f4bd 286d 00bd
000002f0: 5533 bbbe 74c1 8abe 28d2 1f3d 64c5 7b3d
00000300: 9b9a 553e cc97 6d3e 5dad bcbb 8c35 10be
00000310: 72a3 6d3c 13dc ca3d cf36 0b3c f1c3 e7bd
00000320: 1464 2fbc 081e a8bd 593d 44be 4b39 01bd
00000330: e0d3 b33c dd83 13bd 4ee6 463e b533 df3d
00000340: 9f03 333e ff97 1c3e 5c2d fc3d 8d45 103e
00000350: c76e 333e 835b 09bd c239 d23d 4248 8f3d
00000360: 6c8e 3c3e 1174 ce3c f60e 883e ab10 d13c
00000370: a20f 3dbc 5e5a 89bb 1e05 d13d d351 b13d
00000380: 1f5b e6bd d803 47bd 4b6d 3f3e ad25 88bd
00000390: 45b6 36bd 3f46 a23d 7c17 b03c b2f9 9ebd
000003a0: c104 d43d 6d45 92bd 8b8d 84bc 638f 873d
000003b0: 0531 73be 75b1 843e a8f1 c33d 1dd2 723e
000003c0: 3031 513e 41a5 81bd 1165 1c3d b2d1 19be
000003d0: d628 353e 5042 073e b1a5 b9bd 7150 2a3e
000003e0: bb22 f2bd 1837 6d3c 2e71 093e ebc9 91be
000003f0: b73b 123e 4d35 093c 0be9 e73c 3074 4e3c
0.0690105 0.073340535 -0.1385712 0.03837647 -0.02116914 0.010247416 -0.03866554 0.1708919
0.18512851 0.11033199 -0.010271038 -0.0138684595 0.35185412 0.19145313 -0.04661067 0.16602051
-0.04342035 -0.044041596 -0.37001923 0.2982246 0.22479129 -0.100877956 0.10906284 0.20919755
-0.33019856 0.033523016 0.1940952 -0.07360635 -0.048152074 0.059571616 -0.0021114442 0.15950276
0.15387248 0.09766379 -0.09719047 0.027189305 -0.05446666 -0.011771051 0.14822474 -0.053184282
-0.06173214 0.15343511 0.027627101 -0.049734756 -0.04659895 0.06869309 -0.2947564 0.034264833
0.048573732 0.09397072 0.11254879 -0.15358004 -0.0062959427 -0.050314344 0.0196454 -0.0069881165
-0.20236862 0.043824732 -0.0015637039 0.010113322 -0.09847048 -0.10913656 -0.019196138 -0.0008479676
0.20246646 0.20503606 -0.2739884 -0.05330469 -0.00097609754 0.03249821 -0.094516255 -0.29926348
-0.030850777 -0.02504317 0.05483701 -0.056673933 -0.17823389 0.045529086 0.14078042 0.07024648
-0.10937865 -0.12191683 -0.09642712 0.11492575 0.22752117 0.06304292 -0.058947876 0.004351733
-0.07302663 0.013839914 0.3014666 0.21015653 -0.028431782 0.011683705 0.0740909 0.15425763
-0.050172575 0.06031802 -0.23620546 0.04352199 0.01827254 0.081909455 -0.0014769193 -0.0707525
0.066007145 -0.19475529 -0.059872042 0.013732715 0.012914074 0.30892447 0.03448069 0.23306982
0.25395733 0.027717805 -0.029767005 -0.08787819 0.07485002 0.10013333 0.0009232378 0.15950993
0.049438655 -0.052179106 0.081399634 0.2036855 -0.024948118 -0.26221094 0.009378939 -0.00033095328
-0.06097494 0.14858437 0.13086635 0.018744636 0.119098805 -0.025161944 0.30907354 0.14659578
-0.29474074 0.09525187 0.018311536 0.06487579 -0.15463828 0.06878798 0.04156667 0.3532923
-0.0454418 -0.025377916 0.09177168 0.06442556 0.1808682 -0.028383875 0.14212014 0.15351427
-0.211386 -0.02061861 0.3652564 -0.011499393 0.014042571 -0.037555378 0.017862108 0.18872158
0.19813907 -0.0579094 0.1835695 -0.01858265 0.08241664 0.08686822 0.17383133 0.07175202
0.07445556 0.21109664 0.009217619 0.059482932 0.022848748 -0.06708135 -0.3262406 -0.08182339
0.22199023 0.21793117 0.25299767 0.017907247 0.051305633 -0.32288367 0.1490317 0.0658898
-0.115652725 -0.13532643 -0.11954985 -0.0313541 -0.365626 -0.27100718 0.03901878 0.061467543
0.20859759 0.23202437 -0.005757971 -0.14082927 0.0145043 0.09905257 0.008496954 -0.1131667
-0.010705013 -0.08208853 -0.19164027 -0.03154878 0.021951616 -0.036014426 0.19423792 0.10898534
0.1748185 0.15292357 0.12313339 0.14089032 0.17522727 -0.033534538 0.10264923 0.06996204
0.18413705 0.02520183 0.26573914 0.025520643 -0.011539372 -0.004191681 0.10206054 0.08658185
-0.11247849 -0.04858765 0.18694036 -0.06647811 -0.04460742 0.07923555 0.021495573 -0.07762469
0.10352469 -0.07142148 -0.016180774 0.06619146 -0.23749168 0.2591664 0.09567577 0.23712964
0.2042892 -0.06330348 0.038182322 -0.15021399 0.17691359 0.1320889 -0.09064806 0.16632248
-0.118230306 0.014478467 0.13422081 -0.28474364 0.14280592 0.008374524 0.028309366 0.012600943

value.bias f4 [4]
00000000: ff31 8a3e bb7a 963e 5b4a ab3e 4a86 633e
0.2699127 0.2939051 0.33455166 0.22219196

adv.weight f4 [4, 128]
00000000: 978c 123d 91bc 7c3d 02e2 bebd 0587 9e3d
00000010: 494d 923d 5462 a23b 5e56 0e3d 020b ee3d
00000020: 412b 363e 0e94 063e 5c24 b6bd 40c5 99bb
00000030: 51df 593e b8eb 2b3e d09e 05bd abe8 073e
00000040: ba1d 07be 5cea 6c3c d570 b0be 00cc 683e
00000050: 38f5 253e 01c5 f3bd 442f 453d 9419 0c3d
00000060: 0796 d0be 02ae 993d a606 183e 9fed 253c
00000070: 460b 7dbc c547 0bbe 5525 e03d 9ec0 d53d
00000080: 834f bbbc 97b5 d33d fe11 f4bd a665 ebbc
00000090: 29b2 743d b20f 43bd 59d1 15bd abd1 2cbd
000000a0: e11c 99bb 6ea4 b53d 1b8e 2fbd a4a6 c7bd
000000b0: e28e 01be 3d90 083d 0127 8ebe 0109 283e
000000c0: c186 b7bc 6b87 513d fe11 08bd ea26 d4bd
000000d0: c6dd 113e 803a 92bd 08f6 93bd d052 743d
000000e0: 7005 73be d4bc 98bd f74b e73c 8518 3e3d
000000f0: 9072 acbd 291a 5abe 91ca 143d 2496 aebc
00000100: d4ce 063e 7202 273e 5558 48be 3719 14bd
00000110: c5eb d7bd 3f18 eebc 8aa4 c5bd 6d59 a6be
00000120: 8255 84bd 3784 b4bd 43ed 7d3d 6367 b43c
00000130: 465e 3fbe 6061 973d 94b3 b73d d6cc ae3a
00000140: ca20 02be ce44 e9bd bd45 e7bd a6c6 ab3d
00000150: ec20 c43d a504 6f3d 3d2b a0bd 8cc2 1b3c
00000160: 152c 1b3d 6904 08be f253 0a3e a697 993e
00000170: 6860 aebd dcf7 31bd c740 25bd 2bb6 4a3e
00000180: ff86 85bd c53d 5cbd f9cc 95be 8276 603d
00000190: e11b 1fbc 6a5d 7c3d c2a7 8ebd 5d6a 7d3d
000001a0: aebf c13d b883 aabe 1ca8 b2bd 2181 2b3d
000001b0: 34e8 07bd 9856 803e 8b05 ffbc 844c ec3d
000001c0: 9bd7 083e 4a5d 453d 3957 01be 47d2 06be
000001d0: 3eb7 a03d a92b 063d d017 ba3d 2453 3f3c
000001e0: b541 84bd 0be0 26be ce73 e1bd f01d e73d
000001f0: 2663 8abc 862f 65be e4ae 22bd cc7a 02be
00000200: 8650 873d 3ec7 913d ef89 073c 84da e73d
00000210: 52b8 1f3e 90e8 713d 95c4 813e 11b6 023e
00000220: c359 91be 3432 87bc 3f61 50bd bc1a 8dbd
00000230: 89fc 79bd 33f4 28bd b155 2f3d 21d9 2e3e
00000240: 5036 ebbd 3c4a 17bd d3ba 183d cdf4 aebd
00000250: c024 d43d b8e8 dcbd fbb3 993d 3cbb 513d
00000260: 9617 3fbe 17fb 9fbd 49b7 7a3e 28cb 023d
00000270: 54b8 3bbd 05f1 9dbd bcfd 5d3d fa1a cb3d
00000280: 8c7a d6bd 33e8 edbc 1c3c 5c3d 6bda 9b3c
00000290: 7c91 ab3b a1c2 cb3d 3e2b 523c b1c9 2cbc
000002a0: 219d 94bd eed2 9f3e 2337 063d 6c3a b0bd
000002b0: 2cfa c33d daf9 c6bd 072d 93be a4ce f2bd
000002c0: 8dff 513e 36eb 413e 638a 163e 1a3c 103d
000002d0: 58a9 6b3d f53a e3be 9a34 83bd 4e00 2c3c
000002e0: 014e dbbd a2ce 44be 7544 fabd 16f3 69bd
000002f0: f3d3 bebe 1fb2 a9be ba2b 953c 17ab 0ebc
00000300: b50f a13d fe10 793d 3597 3cbc 24d9 36be
00000310: b5ae e8bd d4ff c83b 5b27 dfbd e26d 51be
00000320: 56c1 d93c 6383 9dbd 9129 5cbe 8f33 89bd
00000330: c1f2 303e 64f5 64bd 46d9 093d a505 98bb
00000340: 32ce 0c3e 2316 6c3d 5b09 26bd 0e31 373b
00000350: ae47 1c3e a4f2 de3d cd49 143e 70b4 66bb
00000360: f804 f93d 40e0 f5bd 5c5e 463e c3c2 7a3d
00000370: ff61 1a3c 8789 5fbc 5ec2 1e3b d324 d73d
00000380: 0669 a8bd 5250 41bd 6bcd 863e b09d 5a3c
00000390: e1af 833c 6613 713d 98e7 62bd 81b1 52bd
000003a0: bbcb f73d 1d24 e73c 08fa eebd 3958 a837
000003b0: 23b9 0bbe c76f 243e a4df b33d fdda 1d3e
000003c0: 5e3e 7b3e 461a b2bc fc47 93bc fe28 4cbe
000003d0: 69c4 1e3e 1354 c93d 2342 98bd 2bf4 a3bd
000003e0: d412 f4bc 0b6d d6bc a36b dbbd 7064 7bbe
000003f0: ebba 0e3e 138b bd3d 2af6 383d f03b 813d
0.03577861 0.06170327 -0.09320451 0.07740597 0.07143647 0.0049555693 0.034750335 0.11623193
0.17789938 0.13142416 -0.08893654 -0.0046927035 0.21276595 0.16789138 -0.03262216 0.1327235
-0.13194934 0.0144601725 -0.34461084 0.2273407 0.16206825 -0.1190281 0.04814078 0.03420408
-0.40739462 0.075038925 0.14846286 0.010127454 -0.015444582 -0.13601597 0.109446205 0.104371294
-0.022865063 0.1033737 -0.11917494 -0.028734993 0.05974022 -0.04762239 -0.036576603 -0.042192142
-0.004672632 0.08869253 -0.04286013 -0.09748581 -0.12652162 0.03334068 -0.27764133 0.16409685
-0.022403123 0.051154535 -0.033220284 -0.10358985 0.14244756 -0.07140064 -0.07224661 0.05964929
-0.23732543 -0.07457891 0.028234465 0.046410102 -0.084202886 -0.21299042 0.036325995 -0.021311827
0.13164836 0.16309527 -0.19564946 -0.03615686 -0.10543016 -0.029064296 -0.09650524 -0.324901
-0.06461622 -0.088142805 0.06199385 0.022021955 -0.18688306 0.0739162 0.08969799 0.0013336192
-0.1270782 -0.113900766 -0.112925984 0.083874986 0.09576592 0.05835404 -0.07820747 0.009506833
0.037883837 -0.13282932 0.13508585 0.2999851 -0.08514482 -0.043449268 -0.04034498 0.19796054
-0.06519889 -0.053769846 -0.29257944 0.054800518 -0.009711237 0.061612524 -0.06965591 0.061869014
0.09460388 -0.33303618 -0.087234706 0.041871194 -0.03318043 0.25066066 -0.031130573 0.11538032
0.13363497 0.04818467 -0.12630929 -0.13166152 0.07847451 0.03275648 0.09086573 0.011677537
-0.06457845 -0.16296403 -0.11008416 0.11285007 -0.01689298 -0.2238141 -0.03971757 -0.12742156
0.066071555 0.071180806 0.008272632 0.113209754 0.15597656 0.05905968 0.25345293 0.12764765
-0.28388795 -0.01650343 -0.05087399 -0.06889865 -0.061031852 -0.04124851 0.04280633 0.17075016
-0.11484969 -0.03693603 0.037287544 -0.08542786 0.10358572 -0.10786575 0.07505032 0.05120395
-0.18661341 -0.078115635 0.2448398 0.031932026 -0.045830086 -0.077119865 0.054197058 0.09917255
-0.10472593 -0.029041385 0.053768262 0.019025048 0.005235849 0.09949232 0.012827693 -0.010546134
-0.072565325 0.31215614 0.032767426 -0.08604893 0.09569201 -0.09715624 -0.2874529 -0.1185582
0.20507641 0.18937382 0.14701228 0.035213567 0.057534546 -0.44380918 -0.06406517 0.0104981195
-0.107082374 -0.19219449 -0.122200884 -0.05711659 -0.3727108 -0.33143708 0.018209327 -0.008707783
0.07864324 0.06080722 -0.01151066 -0.1785627 -0.11361448 0.0061340127 -0.10896178 -0.20452073
0.026581448 -0.07691076 -0.21500231 -0.06699287 0.17280103 -0.055898085 0.033654474 -0.0046393448
0.13750532 0.0576383 -0.040536266 0.0027952823 0.15261719 0.10886124 0.14481278 -0.0035202764
0.12159151 -0.12005663 0.19371933 0.061220895 0.009422778 -0.013643629 0.0024224739 0.105050705
-0.08223157 -0.04719574 0.26328596 0.01334326 0.016075077 0.05885639 -0.055396646 -0.051438812
0.120994054 0.028215462 -0.116687834 2.0068243e-05 -0.13644843 0.16058265 0.087828904 0.15415569
0.2453551 -0.021741044 -0.01797866 -0.19937512 0.15504612 0.09830489 -0.074344896 -0.08005556
-0.029794134 -0.026175043 -0.107138894 -0.24550033 0.13938491 0.09255042 0.045156635 0.0631026

adv.bias f4 [4]
00000000: e48a a73b 43c4 c3bd 7a9c 7bbd 5a47 2fbd
0.0051129926 -0.09558918 -0.061428525 -0.042792656
